Neural Network-Based Motion Simulator/model_weights_202512161932.pth (torch, 21939 bytes, 32 tensors)

physical_branch.0.weight f4 [8, 3]
00000000: 2817 bdbe 41d2 49bf 9a06 d3bc b43d efbd
00000010: 23c1 203e 24fd 78be c91f 1c3f 8ccc ad3d
00000020: 9b20 f33e 1b57 f1be 4cce a93e 4b5d 633d
00000030: 01ba bfbe bb8e a33e 826d 43bf 8e31 113f
00000040: 9d86 0d3d f8cd f23d 2226 ca3e 4ac5 b43d
00000050: 99d9 793e 4af3 e23e 79ee 2bbf 368f e03e
-0.3693173 -0.78836447 -0.025759984 -0.11681691 0.15698676 -0.24315315 0.60986 0.0848628
0.47485813 -0.4713677 0.33165205 0.055508893 -0.37446597 0.31944832 -0.7633897 0.5671624
0.034552205 0.11855692 0.39482218 0.088266924 0.24399413 0.4432624 -0.67160755 0.4385926

physical_branch.0.bias f4 [8]
00000000: 90e9 7d3a 72c9 48bb 2bc2 64ba 0687 08ba
00000010: 4a43 d6ba efba 1839 106e 12bb 1c40 19bb
0.00096859876 -0.003063765 -0.0008726443 -0.00052081083 -0.0016346958 0.00014565488 -0.0022343434 -0.002338416

physical_branch.1.weight f4 [8]
00000000: 8f78 623f 88c9 633f 7ab3 4f3f c7cd 5a3f
00000010: 3a06 703f 05be 5f3f 5f08 673f 70f5 523f
0.8846521 0.8897939 0.81133235 0.8547024 0.937595 0.8739932 0.9024715 0.8240576

physical_branch.1.bias f4 [8]
00000000: 8a3b bebd 2290 a7bd 65a4 cebd f71c efbd
00000010: 4cb7 0abd beec d7bd 7f55 f6bc 2316 f2bd
-0.092887 -0.08181788 -0.100899495 -0.116754465 -0.03386621 -0.10543202 -0.030070065 -0.118206285

physical_branch.1.running_mean f4 [8]
00000000: ca06 5d3c 9ee7 bcbb 5978 bdbb 530f d63b
00000010: 8b47 0bbc 87a5 11bc ea20 d9bb 90f5 8f3a
0.013490388 -0.0057649156 -0.005782169 0.0065325885 -0.008500944 -0.008889562 -0.006626238 0.0010983218

physical_branch.1.running_var f4 [8]
00000000: f08f 653f 88e6 003e f262 573f c84e 853e
00000010: 64c2 8b3f f223 d63e 573c 9e3e a4d8 733f
0.89672756 0.1258794 0.84135354 0.26036668 1.0918698 0.418243 0.3090541 0.9525244

physical_branch.4.weight f4 [8, 8]
00000000: 575c 05be ab11 e1bd 4454 533d a20b cb3e
00000010: 78ff abbe da6c b2be ea29 a23e f584 95be
00000020: 9bce 3a3e b9c9 aabd 5030 5d3e ed32 e03e
00000030: 7d31 8bbe d905 9bbe 898e 953e 621d fa3c
00000040: 1a6d adbd 5767 f3be 529e cc3e 0fac 3f3c
00000050: bf17 d8bd abbe 23be 8807 09be 90a3 763e
00000060: 1953 753d 80ed e93e ddad 34bd fdc1 81bd
00000070: 5767 9f3e 5eb3 8ebd 1db3 08be 3ca9 2a3e
00000080: c867 c23e 7a42 323e 619e b63e 983a 9b3e
00000090: e20f 243e 93ef 433e 915e 253e 244f 343d
000000a0: 0a6c ef3e 5518 183f eef7 1b3e 6096 07bd
000000b0: adb9 063f e744 bcbe b2a9 dc3e 21c2 9a3e
000000c0: 3c7c c33e 3332 61bd b197 bfbe 645b cb3e
000000d0: abc0 7cbe 0998 183e ab73 c13e 2de6 ffbe
000000e0: 5013 963d 7d44 53be 7b3a ae3e f2c6 bcbe
000000f0: 2a06 b93e 9185 863e 8188 6a3e efc4 e63e
-0.13023506 -0.10989698 0.051594034 0.39657313 -0.33593345 -0.34848672 0.31672603 -0.29203
0.18242876 -0.08339257 0.21600461 0.43788853 -0.27186194 -0.302779 0.29210308 0.030531589
-0.08468075 -0.4753978 0.3996454 0.011698737 -0.10551404 -0.15990703 -0.13381779 0.24085832
0.0598937 0.4568901 -0.04411112 -0.063358285 0.3113353 -0.06967805 -0.13349576 0.1666612
0.37969804 0.17408171 0.3566771 0.3031814 0.16021684 0.19134359 0.16149355 0.044020787
0.46762115 0.5941213 0.15231296 -0.033102393 0.5262707 -0.36771318 0.43098217 0.30226234
0.3818072 -0.054979514 -0.3742042 0.39718163 -0.24682872 0.14901747 0.3778356 -0.49980298
0.07327902 -0.20631595 0.34028992 -0.36870533 0.36137515 0.26273778 0.22903635 0.45072123

physical_branch.4.bias f4 [8]
00000000: c005 353b 2f16 3abb b271 f33b 5333 14bb
00000010: 97bc 0dbb dcc9 553b e09a c2bb a4ad 833a
0.0027621835 -0.002839457 0.007429325 -0.00226136 -0.00216273 0.0032621538 -0.0059388727 0.0010046256

field_branch.0.weight f4 [16, 2]
00000000: 36f3 143e ae46 e7be 7ad1 cd3e d5a9 663d
00000010: c11e a73d 1b8f e7be 5cd2 99bd abe0 a6be
00000020: e9f7 853e 022a 243f a69d d73e 3db9 cb3e
00000030: 7606 cbbe b8db 48be f4be e2bd 6d36 a4be
00000040: 0a04 b53e fd79 8c3e 1b7d a53e c15a f4bd
00000050: e63d 1bbf 84b9 a8bc d5a6 be3e b63e c13e
00000060: a79d 773e 89ba c1bd 9a8d f0be cb93 b9be
00000070: 1496 4d3e 0c33 a2be 760e d23d 8ca0 8b3e
0.14545903 -0.45171112 0.4019888 0.05631431 0.08160163 -0.45226368 -0.07510826 -0.32593283
0.26165703 0.641266 0.42112464 0.39789763 -0.39653367 -0.19615066 -0.11071578 -0.32072774
0.35354644 0.2743682 0.3232201 -0.119313724 -0.60641325 -0.020596273 0.37236658 0.37743157
0.24181233 -0.09459407 -0.46983033 -0.3624557 0.20076782 -0.3167957 0.102566645 0.27270925

field_branch.0.bias f4 [16]
00000000: 99cc 4d3b ae00 3c3c ee61 69bc ec73 0a3c
00000010: 8168 503a 1373 213b 872f 5dbb b40a 06bb
00000020: e446 623b 9698 1d3b e5b1 023c 5f31 d3bb
00000030: d5d8 573b 286e cc39 b700 35ba 6336 17bc
0.0031402467 0.011474771 -0.01424454 0.0084504895 0.00079501426 0.002463524 -0.0033750252 -0.0020453157
0.0034527117 0.0024047247 0.007976984 -0.0064450945 0.0032935638 0.00038991985 -0.00069047086 -0.009229275

field_branch.1.weight f4 [16]
00000000: 8858 8e3f bcb0 853f 7676 8b3f dcd2 883f
00000010: effc 7b3f 3ec6 7e3f 93ef 903f 80cf 863f
00000020: 1a50 8c3f 6ccd 883f 8523 7f3f 5cc4 853f
00000030: 5f27 8c3f 4358 803f 850f 8e3f 0616 823f
1.1120768 1.044456 1.0895526 1.0689349 0.9843282 0.99521244 1.1323112 1.0532074
1.0961945 1.068769 0.99663574 1.0450549 1.0949515 1.0026935 1.1098486 1.0162971

field_branch.1.bias f4 [16]
00000000: 87eb 1d3e 2a44 2fbd 5ddc d53d 27b8 b0bc
00000010: da3a 0b3c 4ed3 7cbd 4aed 993d de2a 03bc
00000020: 6db5 a03d 5544 e03d ad8e 8bbd 2d9c aabc
00000030: bd79 d63d 5af1 b6bd 0ee1 e03d dc60 163c
0.15421878 -0.042789616 0.104424216 -0.021572186 0.008497918 -0.061724953 0.075159624 -0.008005826
0.07847104 0.10950533 -0.068143226 -0.020826424 0.104724385 -0.08932753 0.10980426 0.0091783665

field_branch.1.running_mean f4 [16]
00000000: b427 d33b 0fcd 813c 3eab 3ebc f50c 103c
00000010: 1f0e bf3a 1ba6 bc3b 4ff9 e9bb edcf 07bb
00000020: 7e98 d23b 5d32 d63b a4e3 933a 0548 6cbb
00000030: 88e9 d33b 0b53 6fbb 1a89 373b 0bef 15bc
0.006443942 0.01584485 -0.011637507 0.008792152 0.0014576352 0.005757106 -0.0071403156 -0.0020723299
0.00642687 0.0065367655 0.0011283052 -0.003605367 0.006467048 -0.0036518003 0.0028005303 -0.009151231

field_branch.1.running_var f4 [16]
00000000: bacb 603e 33b6 263e 33f8 553e b5fa ea3d
00000010: 8649 fe3e a06d b23e 0965 4c3e 1a6d f33d
00000020: ecf4 533e b428 e63d b159 b83e c596 953e
00000030: 6087 823d 7055 ba3e f93c 093e 61c9 b33d
0.21952716 0.16280441 0.20895462 0.114736 0.4966547 0.34849262 0.19960417 0.11886044
0.20698899 0.11238232 0.3600593 0.2921659 0.06373477 0.3639331 0.13402165 0.08778644

field_branch.4.weight f4 [16, 16]
00000000: 1f2f 3fbe 82c9 8e3e f5e9 34be d1b5 54bc
00000010: dbe5 c5bd bf68 cebe 55ca 6d3e c316 063e
00000020: e13c 4ebe 149d 1c3e 0d94 0abf 8fb9 cbbe
00000030: 8e78 afbe 4ba8 583c 3184 28be 4bd9 6c3b
00000040: 8948 a33e 1b3d d6be 999e 2f3e 295e 1f3e
00000050: 1b2e c53b 5db3 a03e 785d bd3e a5bf b0bd
00000060: 67cc dcbe a31a 0dbe 3228 c7bd 3fe6 353d
00000070: 9c4f ae3d 56c0 d83e 4422 643e 8da1 1cbe
00000080: 352a 0bbd 60c8 413d 125e b0bd eced b53e
00000090: 4dbf bcbe d073 253e 987b 3abe cb6e 86be
000000a0: a607 04be e1fd 073e c622 e93e ee57 8c3d
000000b0: 47c9 b8bd 5b4c 283d e131 6bbe 0cef 91bd
000000c0: 5be4 f1bd ad63 9c3e bca6 1b3e e3c8 c7be
000000d0: 6b3b a9bc 1bd1 74be b978 3fbd e713 b2be
000000e0: 5cf9 be3d d951 b8be 16aa f63e e5a7 a63e
000000f0: 78aa b1be 093f a7be 3035 85bd 0f19 0fbe
00000100: ee05 a63b 4797 9cbe f0d7 7b3d 7120 93be
00000110: 6e18 51bc e9cc 57be 006c 923e 5378 98bc
00000120: 2466 a9be a21b ccbe 21a7 19be cab0 a5be
00000130: 2d5b 3fbd 6bb3 803e 3c90 3bbe e215 ba3d
00000140: 3ac1 06be 54e2 b8be ff7a 9ebe 2010 34bd
00000150: a3cc af3e 0eee 02be 7155 9e3e ff3a 24be
00000160: c9a6 0ebe ba64 02bf 4e54 de3e fd5d c53e
00000170: 115b 21be aafd b93e 03ff 1b3e 37d5 433e
00000180: 5da8 713e 750c 9ebe 5c0b dfbe 0839 90be
00000190: a584 843e 146c 98be 4711 a7be 0830 43be
000001a0: ea60 a7be 21ee 3c3d 0c42 783c 856f 2ebe
000001b0: 62ab a53e 884c 22be 6633 d8bd 7172 e53e
000001c0: afe0 ad3e ffba 15be 50f8 95be a6e4 50be
000001d0: 2fee 00bd a055 2c3e 7b4d 9c3e e64b 0cbe
000001e0: 1072 d5be 9256 cdbe c15b d8bb db3e a0bd
000001f0: 24fd 56be 82c1 dbbe 543c 0e3c 8ddb bbbe
00000200: 3fe7 6fbe d0a2 d0be 35e3 eebd bc52 d93e
00000210: 204f da3d 5fa9 c5bd 1c90 4d3e 7f45 6c3e
00000220: 0a11 7cbd f0ee f3be 87f7 b0bd 3193 82be
00000230: 62ea c7bd e05c d7be 7813 21be 8a96 fbbd
00000240: 720e e33e b19e e13e 3acc 843e 62f5 683d
00000250: 0e13 97bc bd52 273e 2576 33be 5303 02be
00000260: 32ce 3a3d 0559 f83d a176 97be 4877 4f3e
00000270: b4ff ea3e c9f9 f1bd 4929 813e 1713 3d3d
00000280: 617f 373e ea67 383d debf 073f efcc 8f3e
00000290: a908 99be 7e96 30be 3b14 a13e b899 ab3e
000002a0: d8c4 89bc dd3a 1cbc 8a39 0abd dda7 f0bd
000002b0: 4fe4 8abd fc55 023e 3580 7e3e 626f 4d3e
000002c0: 05f6 4cbe bd5f a63d c33a 263e 0d86 8c3d
000002d0: 3888 273e 0255 663e 5ecc 06bd 6589 e3be
000002e0: 2dcd ea3d 6d27 08bd db07 983e 2472 ed3e
000002f0: f74d dd3c 8c23 ad3e 28d7 49be 5b43 d33e
00000300: 04cf a13e 091c bdbb f172 bdbe 236e 2cbe
00000310: 0584 bbbd 0799 4b3d b013 d4be 8775 5b3d
00000320: b912 0ebe 33f5 0abe 8745 6dbe 37c2 8abd
00000330: 7d72 d5be 01eb 82be 847d cdbc e6ac b13e
00000340: 90f5 d53e a742 95be fcc9 573e 7359 79be
00000350: dfde aebe 8317 d4bc 0dc7 81be 5081 babe
00000360: 42c0 d1be 17b7 7bbe 6db8 b43e ef53 673e
00000370: 0960 12be 9dfa 86be 872b 9abe 5d6e 8dbe
00000380: cdcd 9cbd bef5 163e d39f 2d3e 014d 13ba
00000390: 8903 353e 66c0 a8be d215 38be 6ce9 7c3e
000003a0: 0e92 a8be a66f cf3a 2a02 0e3f 4956 8ebe
000003b0: cba8 d6be b4ab 853e 52d7 d7be 1668 813e
000003c0: 75fc d4be d342 343e 6e56 01bf afad a5be
000003d0: 1f93 1b3e 2be1 823e 1b7b a13e 2a6c 843e
000003e0: d131 333d 99d5 2abe f87a 333d d2a5 da3b
000003f0: dbd0 f5bd e86f 97be 69db f5be c56b ab3e
-0.18670319 0.27888113 -0.17667373 -0.0129828015 -0.09662982 -0.4031429 0.23221715 0.1309462
-0.20140411 0.15294296 -0.5413216 -0.39790007 -0.34271663 0.013223718 -0.16456677 0.003614026
0.31891277 -0.41843495 0.17150344 0.15563263 0.006017459 0.31386843 0.36985373 -0.08630303
-0.43124697 -0.13779692 -0.097244635 0.044409033 0.08511278 0.4233424 0.22278696 -0.15296002
-0.0339758 0.047310233 -0.086116925 0.35533082 -0.368647 0.1615746 -0.1821121 -0.26256403
-0.12893543 0.13280441 0.45534343 0.06852709 -0.090227656 0.041088443 -0.22968246 -0.07125673
-0.118111335 0.30544797 0.15200323 -0.39020452 -0.020658216 -0.23907892 -0.04674599 -0.3478081
0.09324905 -0.35999945 0.4817664 0.32549968 -0.3470037 -0.3266528 -0.06504285 -0.13974403
0.005066625 -0.30584165 0.06148523 -0.28735688 -0.012762172 -0.21074261 0.28598022 -0.018612063
-0.3308574 -0.39864832 -0.15005161 -0.32361442 -0.04671781 0.25136885 -0.1831674 0.09086205
-0.13159648 -0.36110175 -0.30953214 -0.04396069 0.34335813 -0.12786123 0.30924562 -0.1603813
-0.13930811 -0.50934947 0.43423694 0.3854827 -0.15757395 0.36326343 0.15233998 0.19124304
0.23599382 -0.3086888 -0.43563354 -0.2816851 0.2588245 -0.29769957 -0.3263037 -0.19061291
-0.32691127 0.046125535 0.015152466 -0.17034729 0.32357317 -0.15849507 -0.105566785 0.44813874
0.33960482 -0.14622115 -0.2929101 -0.20399722 -0.03147715 0.16829538 0.30527863 -0.13700828
-0.41688585 -0.4010511 -0.006602735 -0.07824489 -0.20995003 -0.42921072 0.0086813755 -0.3669094
-0.23428057 -0.40749216 -0.1166443 0.42445934 0.10659623 -0.096514456 0.20074505 0.23073386
-0.061539687 -0.47643232 -0.08640962 -0.25502923 -0.09761502 -0.42063046 -0.15730083 -0.122845724
0.44346958 0.44066384 0.25937063 0.05687464 -0.018441703 0.16340156 -0.17525537 -0.1269658
0.0456068 0.12126354 -0.29582694 0.20260346 0.4589821 -0.11815221 0.2522681 0.046160784
0.17919685 0.045020975 0.5302714 0.2808604 -0.2988942 -0.17244908 0.31460747 0.33515716
-0.016817495 -0.0095355185 -0.03374628 -0.117507674 -0.06781828 0.12728113 0.24853595 0.2006202
-0.20015724 0.081237294 0.16233353 0.06861506 0.16360557 0.22493365 -0.032909743 -0.4444076
0.114649154 -0.033240724 0.29693493 0.46376145 0.027014716 0.33816183 -0.19710982 0.41262326
0.31603253 -0.0057711643 -0.37001756 -0.16838889 -0.0915604 0.049706485 -0.4142127 0.05357888
-0.1387433 -0.13570099 -0.23171054 -0.06775325 -0.4168891 -0.2556992 -0.025084265 0.34702224
0.41788912 -0.29152414 0.21073145 -0.24350528 -0.34154412 -0.025890118 -0.25347176 -0.36426783
-0.40966994 -0.24581562 0.35296956 0.22590612 -0.14294447 -0.26363078 -0.30111334 -0.27623263
-0.07656441 0.1474218 0.169555 -0.00056190795 0.1767713 -0.32959288 -0.17977074 0.24698418
-0.3292393 0.001582612 0.5547205 -0.27800205 -0.41925654 0.26107562 -0.42156464 0.25274724
-0.4159886 0.17603616 -0.50522506 -0.32359073 0.15192841 0.25562415 0.31539235 0.25863773
0.04374868 -0.16683044 0.043818444 0.0066725994 -0.12002727 -0.29577565 -0.4801896 0.3348066

field_branch.4.bias f4 [16]
00000000: 6247 0f3e 4408 483d 989c 5e3d b629 c63c
00000010: 2d06 d03d e409 c03d 40f8 2a3d 61eb 48bd
00000020: 6af8 953d d41a 003e 372f c73d b3b7 143e
00000030: a9be 293c e9d6 443c 3a5c 873d 4076 233e
0.13992074 0.048836008 0.05434856 0.024189811 0.10157428 0.093768865 0.041740656 -0.0490526
0.07322772 0.12510234 0.097258024 0.145232 0.010360398 0.012014129 0.06609388 0.15963078

field_branch.6.weight f4 [16, 16]
00000000: bc58 91be cc99 e53e 1b65 243e ff9f 223d
00000010: 19f0 ce3e 6c55 2abe 8fa6 3abe 129b aa3d
00000020: c12e ac3e 1d19 d5be 5a90 953e 70e1 97be
00000030: 3eb5 9c3b e00b af3e 311b 913d 30d3 12bd
00000040: 8390 4dbe dc5e df3e 48b5 723e 0528 18bb
00000050: 27db 94be b885 afbe eb55 ba3e e5db ab3e
00000060: 387b 833e 638c 7fbe 813f fb3e e8c8 bfbd
00000070: c645 983e 4416 c63e b437 acbb df09 86be
00000080: 61c6 7c3e 2887 75be a6cb 7d3e 8f9a d2be
00000090: f980 50be 39a0 cfbe c580 03be 1349 8a3e
000000a0: 1dab a5be 9abc 9bbe 4db3 943e 072b 6f3e
000000b0: f29e b5bc 9cc4 adbe 03ea 24be 8730 d3bd
000000c0: 7320 b93d 46ba fbbd 6da0 1abe d320 b1be
000000d0: 5cf4 89be c7e7 df3d 6e00 c83e 5215 1f3e
000000e0: ab51 b7bd 51a3 fd3e ae4f 053e 9a59 5dbe
000000f0: c8f5 63be 508c 3dbd 39d6 e33d d880 ac3d
00000100: 29db d03e 87df 08bd f016 a63e 6287 48be
00000110: 3279 26be fcb7 67be 71d3 c3be 1592 66be
00000120: 69ad debe 3a60 623b 3215 43bd 3517 30be
00000130: b2f9 bcbe 985c bf3e 75cd 41be 4599 f13d
00000140: 1491 ef3e cdac adbe 95f9 dcbd 3ac1 983e
00000150: dcde e43e 46ee 413a 9995 903e adc5 b1be
00000160: 1a64 c6be 0703 7f3e 6c1f 42be a6a0 c33e
00000170: 928f ec3d fe4f 3cbe 484a cb3e 1e93 d63e
00000180: c818 8b3d 18fa 75be a826 5c3d 1619 36be
00000190: f1e8 a83e 6c9d 653d e7e2 d83d f001 af3e
000001a0: 52b8 4a3e 728d 96be eae3 ae3e b82e 803e
000001b0: c06e 9cbe d108 b73e 20a4 113e 5f14 04be
000001c0: 354a 87be b0c9 2ebe 3ee7 03bf 6ae1 a23e
000001d0: 40c5 8b3e ca1e 1dbe 6c7b cf3e fe09 63be
000001e0: 8f5a dfbd 8da2 aebe 8ab7 1cbe 1b5d 6f3e
000001f0: 3f35 ab3e bc01 91bd a5a7 a3be 6c83 bc3e
00000200: 8ce9 b43e 1f7b 823d 6fa2 17be b589 be3d
00000210: b68e 6a3d 8d52 a93e 991a 1a3e b6d4 c53d
00000220: a087 683e 4bdb 853e 8b0a 213d 62b5 b33e
00000230: 874d bc3d 1a52 90be a1be 343d e009 bebe
00000240: 5cd4 efbe 7fea 3d3e e1d2 103e a60b bdbd
00000250: d3e7 b53e 3af2 84be 6d9e 39be c5bc 4c3d
00000260: aee6 8a3d 6332 0c3d 812d 023f 5629 61be
00000270: c369 6fbe 3f3e 9b3d 40a7 893e ec1e 633d
00000280: 002c c53e 33a7 ac3b 4ab8 b13e 6ae1 9b3e
00000290: d2e1 ba3e 9d8a abbb 40f4 99be 2e1c 50be
000002a0: 1f28 633e ccbd 783e 4853 92be 7206 a23e
000002b0: 7d5e f1bc 58a0 ac3b 70aa 943d 5491 4abd
000002c0: 3604 013f c92f 80bd 1a07 5e3e 365d 9cbe
000002d0: d892 58be 0eea 0e3e a760 6b3e b1ae 0b3e
000002e0: 5abb 82bd 73f2 02bf 6742 01be 7dc2 5bbe
000002f0: db8d 73be 1cb0 913c afb9 8cbe 5705 023f
00000300: bb21 66bd 0fca 173e 2ece 9d3e 8986 9dbe
00000310: 3b31 8a3e 3e14 f93c 72d3 fd3d a31c dd3e
00000320: 0d2f c6bd a06c 9fbe e653 ab3e dfad 72bc
00000330: cf58 40bc 0c41 c53e b860 16be 06af 52bd
00000340: ef42 653e 636f 923e 8407 1bbe 5035 d83b
00000350: 3ac5 9abe 16c1 61be b559 8e3e a4e8 05bd
00000360: a014 46bd 88d6 d73d c3c0 7e3e 63b6 a8be
00000370: 29b4 d9be b249 b7be 8001 4e3e 2389 b5be
00000380: 6632 41be 99e1 ebbd 044e a9be 14e0 0fbe
00000390: 5dbe e0be 1dc7 c7be b8c3 b33d 7f05 99be
000003a0: e731 e5be e373 eb3e f2b4 593d 743d 0dbe
000003b0: 682d 97bd b760 973e 9de9 fdbe 5401 72be
000003c0: 5f18 02bf ae5c ddbd ad87 2abe e114 93be
000003d0: d522 3b3e 9476 eabe 2a16 0c3f be81 acbe
000003e0: 926e 6fbe bca6 0a3e 85c7 92be bf31 d73e
000003f0: 1da2 8cbe 18bc c6bd 20c9 efbe 7fcc 1c3e
-0.2838801 0.448439 0.16054194 0.039703365 0.40417555 -0.16634148 -0.182276 0.083303586
0.3362942 -0.41620722 0.29211694 -0.29664183 0.004782348 0.34188747 0.070852645 -0.035845935
-0.20074658 0.4362706 0.23701966 -0.0023217213 -0.2907345 -0.34281707 0.36393675 0.33566204
0.25679946 -0.24955897 0.49071887 -0.09364492 0.29740733 0.38688862 -0.005255664 -0.26179406
0.2468505 -0.2397734 0.24784717 -0.41133544 -0.20361699 -0.40551928 -0.1284209 0.27008876
-0.32357112 -0.3041733 0.29043046 0.23356257 -0.022170518 -0.33939064 -0.16104893 -0.1031199
0.09039392 -0.12291388 -0.1510026 -0.34595355 -0.26944244 0.1093288 0.39062828 0.15535477
-0.08951124 0.49538663 0.13018677 -0.21616212 -0.22261727 -0.04627639 0.11124844 0.084230125
0.40792206 -0.033416297 0.32439375 -0.19582894 -0.1625717 -0.22628778 -0.38247254 -0.22516663
-0.43491676 0.0034542219 -0.047627635 -0.17196353 -0.36909252 0.3737533 -0.18926032 0.11796812
0.46790373 -0.339209 -0.107897915 0.2983492 0.44701278 0.0007397871 0.28239134 -0.34721127
-0.38748246 0.24903499 -0.18957299 0.38208503 0.11550821 -0.1838989 0.3970511 0.41909117
0.06791836 -0.24021184 0.053747803 -0.17783007 0.3299022 0.056058332 0.10590153 0.34181166
0.19796875 -0.2940479 0.3415826 0.25035644 -0.30553246 0.35748914 0.14222765 -0.12898396
-0.26423803 -0.17069125 -0.5152472 0.31812602 0.27298927 -0.15343776 0.4052385 -0.2217178
-0.109059446 -0.3410839 -0.1530439 0.2337536 0.3343906 -0.07080409 -0.3196384 0.36819017
0.35334432 0.0637114 -0.14808057 0.09303609 0.057265006 0.33070794 0.15049209 0.09659712
0.22707987 0.2614387 0.039316695 0.35099322 0.09194475 -0.2818764 0.04412711 -0.3711691
-0.46841705 0.18546484 0.14142944 -0.092307374 0.3552843 -0.25966054 -0.18126841 0.049984712
0.0678228 0.03422774 0.50850683 -0.21988425 -0.23380189 0.07580232 0.26885414 0.05544941
0.38510132 0.005268955 0.34710914 0.30445415 0.36500412 -0.00523503 -0.3006916 -0.2032325
0.22183274 0.24291152 -0.28579164 0.31645542 -0.029464 0.005268138 0.07259071 -0.049455002
0.5039705 -0.06259114 0.21682397 -0.30539864 -0.21149766 0.13956472 0.22986089 0.13640858
-0.06383391 -0.511512 -0.12622987 -0.2146091 -0.23784582 0.01778417 -0.27485415 0.507894
-0.05618451 0.14823173 0.30821365 -0.30766705 0.26990685 0.03040516 0.123938456 0.4318591
-0.09676943 -0.31137562 0.33462447 -0.014811962 -0.011739924 0.3852619 -0.14685333 -0.051436447
0.22388814 0.28600606 -0.15139586 0.006598152 -0.30228597 -0.22046313 0.27802816 -0.032692567
-0.048359513 0.105389655 0.2487822 -0.3295165 -0.42520264 -0.35798413 0.2011776 -0.3545619
-0.18866882 -0.11517639 -0.33067334 -0.14050323 -0.43895236 -0.390191 0.08777565 -0.29887006
-0.44764635 0.45986852 0.05315108 -0.13792974 -0.073817074 0.29565975 -0.49592295 -0.23633319
-0.5081844 -0.10808693 -0.16653319 -0.28726867 0.18275006 -0.45793593 0.5472132 -0.33692735
-0.23382023 0.13540167 -0.28667846 0.4203014 -0.27467433 -0.09703845 -0.46833134 0.15312384

field_branch.6.bias f4 [16]
00000000: e71f e63b 9398 5f3b eb15 ae3b 7850 a7bb
00000010: b38b ac3b 2465 d9ba 03bd 573b 7c2e d53b
00000020: caf0 7b3b 276b fc3a 2947 82bb c814 8abb
00000030: a6fc 90bb 1c90 933b c509 a439 2f65 193b
0.007022846 0.003411804 0.0053126714 -0.005106028 0.005265677 -0.0016585928 0.0032919056 0.0065057855
0.0038443082 0.0019258008 -0.003975768 -0.004213903 -0.0044246493 0.004503263 0.00031287796 0.0023406257

combined.0.weight f4 [32, 24]
00000000: a321 2b3e 3aac 403e 7678 113d 86ef 03be
00000010: e83b 933e 023a a43c 9604 013e 94db c2bd
00000020: 523e 72be 6e49 b8be 2ded 943e 6b23 4e3d
00000030: 0e57 3dbe c302 dc3d b4ed 4dbe 4932 ff3d
00000040: 1413 933d 1014 85be 3eec e03d a88f 4dbe
00000050: be80 13bd ccec cabe 0834 bd3d aff9 d93e
00000060: 7cf3 843e 9d60 4c3d 797a 503e 219a 9d3e
00000070: 5b34 653d 307e ac3c 4c95 843d 39de 803e
00000080: f57b f43d fbf0 91be 9041 85bb 9d1a 37bd
00000090: 0b64 593e 4908 33be deaa 8e3c 3c1f 073c
000000a0: b769 2a3e b45f 9d3c eefc dbba 33f7 de3c
000000b0: 6db6 8bbc 52fa b4be 37ae e23e 5f22 ed3e
000000c0: a924 293e 1f4a 98bd cfcf 483d c481 d1bd
000000d0: b0be b5bd c4a4 3d3e 2fbd 3b3e 4615 b83d
000000e0: 7272 b8be e85b 6a3e e1ca 3abe be0d a63e
000000f0: f2d7 963e a028 eb3d 0491 843e c0d8 0a3e
00000100: 81d9 453e 38ed eebd 01a1 b03e b297 c03c
00000110: 28ce e23d 0a03 b0bc bba7 983e d78f 9c3e
00000120: 3731 56be ab4e af3e 0247 27be 59f6 86be
00000130: e04d 44be c5a6 023e 8fc1 68be 8ffa a5bd
00000140: cbe8 13be 224a 6f3d f77b 67be 2d9f 7cbe
00000150: 8637 3f3d 3408 923c 0832 0dbe a050 4b3e
00000160: 1736 92be 3a56 b7be 805b b1bd f486 eabd
00000170: 076a 443e e0a7 74be da9b 56bd c07a 113e
00000180: d266 92be deca 8f3e 2cad d1bd 455f c7bd
00000190: 0d32 17be 92e6 9abd 0844 1ebe 3886 67be
000001a0: 8433 3c3d 517e 89bd 2f93 9c3e 1d50 4c3e
000001b0: ebfc ab3e 4007 0e3e 1670 e63d 5c5b be3e
000001c0: bc9e 633e 1401 a9be b480 54bd 7f75 91be
000001d0: 68d7 99bd 497b 26be a8c6 993e c05b 013e
000001e0: ad15 1b3d 5e1b 37be cd12 43be e5ad 843c
000001f0: b9bf 0dbe 390c f2bd 77a7 733e 591c 10be
00000200: ac9b 32be 82c7 173e d1d1 343e 347d 8bbe
00000210: 8111 103e 04d5 503e e532 a2be d684 603e
00000220: 3d9a 58bc 2283 00be f8b1 803e 35d1 dabd
00000230: e127 d03d 1085 8dbe 70e6 96be 255c 9c3e
00000240: 6c04 21be c381 b23c 9014 303e bc29 8fbe
00000250: 19a0 70be 08c7 f23d fd48 903e e5de 233c
00000260: df4a 363e eb34 013e d301 d73d b5a5 01be
00000270: 481a d53e df67 063e 3220 84bd b98e 593e
00000280: 8ebc 92be 5b81 b43d 1ccc 0bbe 3714 0ebe
00000290: f170 a63d 93a9 533e 5a78 593e 504c 1cbe
000002a0: fe16 2dbe 935a c8bc a279 dabd 4606 67be
000002b0: 91ae 723e 6911 1a3d b3ad 53be 1f22 c6bb
000002c0: bbb7 7d3e cbaf a3bd f81b 5e3d 1b00 6fbe
000002d0: 3579 f73a 82dd 853e dc25 aa3e fb49 ac3a
000002e0: f885 e03a b985 163e 1888 e53d 5ce1 043e
000002f0: efc2 183d ba51 9e3d 897d 94be f432 b1be
00000300: 2777 4abe 7664 e6bd f6bc 1abe b966 863e
00000310: 6e7f 5b3d 1e78 97be 34c7 0abe 8988 3d3d
00000320: 3b49 c0bd 329b 28be c848 b8bd b009 6abe
00000330: 6425 c13c 9256 863d cd4d 803e 02e4 b63e
00000340: d788 463e b812 02be ecbf 2dbe f55f 103e
00000350: d944 80be d968 043b 531b 1cbe 955a ddbd
00000360: 34ce 84be 29f1 373e 7917 453e 7647 823e
00000370: 1baa bfbd 129b 613d aa04 3a3d 5356 4bbe
00000380: d6d6 3ebe 0bb9 523e aa9b 10be 0e4c 6f3e
00000390: 8a7f 113e 7ade ca3d b71e 563e e93f 183e
000003a0: 7c52 103e 16fd 5a3e 5755 e7bd c5ad 52be
000003b0: 7ca9 7ebc 158a 613e 12af 8b3e be26 913e
000003c0: 7251 71bd 1875 eb3c 3aee 2ebe 0869 213e
000003d0: b8a1 4bbe 58c5 02be 0a85 913e df4b b73d
000003e0: 66b7 d9bd 7138 74be db57 ddbd 78cd 0d3e
000003f0: bea7 89be 8af9 833e b24b 973e 945e 3d3e
0.1671205 0.18815699 0.03551527 -0.1288434 0.28756642 0.020047192 0.12599406 -0.095145375
-0.23656586 -0.35993522 0.290872 0.050326746 -0.1849024 0.10742714 -0.20110208 0.12460763
0.07181373 -0.2599187 0.109825596 -0.20074332 -0.03601145 -0.39633787 0.0923844 0.42573306
0.25967014 0.049896825 0.2035922 0.30781654 0.055958133 0.021056265 0.064737886 0.25169542
0.119377054 -0.28504166 -0.0040666535 -0.044703115 0.2122957 -0.1748363 0.01741546 0.008247193
0.1664189 0.019210674 -0.0016783753 0.027217483 -0.01705476 -0.3534723 0.4427354 0.46315286
0.16517891 -0.074360125 0.049026307 -0.10229829 -0.088742614 0.18519884 0.18333887 0.089884326
-0.36024815 0.22886622 -0.18241455 0.3243236 0.29461628 0.11482358 0.25891888 0.13559246
0.19321252 -0.1166634 0.34497836 0.023509834 0.110744774 -0.021485824 0.29815468 0.3057849
-0.20917211 0.34239706 -0.16335681 -0.26359823 -0.19170332 0.1275893 -0.22730087 -0.08104431
-0.14444272 0.058420308 -0.22605883 -0.24670096 0.04668381 0.017826177 -0.13788617 0.19854975
-0.28556892 -0.35807973 -0.0866003 -0.114515215 0.19181071 -0.23892164 -0.052394725 0.14206982
-0.2859407 0.28084463 -0.10238108 -0.09734968 -0.14765187 -0.07563509 -0.1545564 -0.22609794
0.045947567 -0.06713546 0.30581042 0.19952436 0.335914 0.13869953 0.112518474 0.37179077
0.22228521 -0.33008635 -0.051880553 -0.28409955 -0.075117886 -0.16257967 0.30034375 0.12632656
0.03786247 -0.17881534 -0.1905014 0.0161962 -0.13842668 -0.118187375 0.23794352 -0.14073314
-0.17442197 0.148222 0.17658164 -0.2724396 0.14069177 0.20393759 -0.31679454 0.21925673
-0.013220367 -0.12550023 0.2513578 -0.10684434 0.10163856 -0.2764058 -0.29472685 0.3053905
-0.15724343 0.02179039 0.17195344 -0.27961528 -0.23498572 0.118543684 0.28180686 0.010001873
0.17801999 0.12617843 0.10498395 -0.12660868 0.41621614 0.13125561 -0.06451453 0.2124585
-0.2865948 0.08813735 -0.1365208 -0.13874899 0.081270106 0.20670156 0.21237317 -0.15263486
-0.16903302 -0.024457252 -0.10667731 -0.22560987 0.23699404 0.03761426 -0.2067173 -0.006046548
0.24777119 -0.07992514 0.05422589 -0.23339884 0.0018880727 0.2614556 0.3323201 0.0013144606
0.001712977 0.14699449 0.112075984 0.12976593 0.03729528 0.07730432 -0.29002026 -0.34609187
-0.19772016 -0.1124963 -0.15111145 0.26250246 0.053588323 -0.2958383 -0.13552552 0.04627279
-0.093889676 -0.16465452 -0.08998257 -0.22855258 0.0235774 0.06559481 0.25059357 0.3572083
0.19388138 -0.12702453 -0.16967744 0.14099105 -0.25052527 0.0020204096 -0.15244798 -0.10808293
-0.2593857 0.17963089 0.19247235 0.25445145 -0.09358617 0.055079527 0.045414604 -0.19857149
-0.18636641 0.20578401 -0.14121881 0.23368856 0.14208809 0.09905715 0.20910154 0.1486813
0.14093965 0.21385607 -0.11295574 -0.205741 -0.015543338 0.2202533 0.27282006 0.2834987
-0.058915563 0.028742358 -0.17083064 0.15762722 -0.1988591 -0.12770593 0.28421813 0.08950018
-0.106306836 -0.23849656 -0.10807773 0.13847911 -0.2688579 0.2577632 0.29549938 0.1849311

combined.0.bias f4 [32]
00000000: 465d 663a ca7a 56bb 12b6 c6b9 fd77 7c3b
00000010: 4ddd 163b 24ed e6ba 7635 e73b 0fcc 6a3b
00000020: 61cd 193a 18e0 1d3b 929e 56bb 6f13 2b3b
00000030: f2f8 293b 5d52 9b3b a839 c13a 96e9 b8ba
00000040: 0142 7a3b 4bc2 68ba b316 953b 3e9f d2b9
00000050: 5d2e ac3b 443d 5c3b 9eac a23b 627a 143a
00000060: ee36 023b 7827 bdba 7b89 013a f210 e23a
00000070: 417d 7b3a 84ae ab39 cb6b ddb9 033c 7639
0.00087877025 -0.0032726997 -0.00037901156 0.0038523667 0.002302009 -0.0017618281 0.0070559336 0.0035827195
0.00058670907 0.002408987 -0.0032748324 0.0026104113 0.0025935736 0.004740043 0.0014741914 -0.00141077
0.0038186314 -0.00088790496 0.004549825 -0.00040172966 0.0052545504 0.0033605853 0.004964425 0.00056639884
0.0019869166 -0.0014431318 0.00049414457 0.0017247482 0.00095935544 0.00032745686 -0.00042232717 0.00023482744

combined.1.weight f4 [32]
00000000: a8aa 783f 2998 6a3f 8f29 823f 9dd3 813f
00000010: 1771 5f3f 9b51 7b3f 51a5 7c3f 90dc 813f
00000020: 0432 743f b937 7f3f b3f0 793f b3ff 863f
00000030: 2e19 803f 5c3e 733f 6ade 843f 98be 793f
00000040: 5420 6d3f eb36 8c3f 8915 663f f250 733f
00000050: 815e 723f 0297 8c3f 4e8f 5e3f a53d 7b3f
00000060: a33b 903f 0a4a 7f3f fcd8 813f 44d4 793f
00000070: 455d 863f 21a5 853f 3ef6 853f f557 7e3f
0.971354 0.9163843 1.0168933 1.0142704 0.87281936 0.98171395 0.9868975 1.0145435
0.9538882 0.996944 0.976329 1.0546783 1.0007684 0.9501703 1.0380375 0.9755645
0.92627454 1.095426 0.8987661 0.9504539 0.9467545 1.0983584 0.86937416 0.9814094
1.12682 0.9972235 1.0144343 0.97589517 1.0497214 1.0441018 1.0465772 0.9935296

combined.1.bias f4 [32]
00000000: 3855 2a3d cb78 b5bd 5179 cb3c 222c 583d
00000010: 3fb5 2fbd e2ce 57bc 60d6 2abd 7b5f dbbd
00000020: 8789 863b f1fa b33d d7a5 49bd f073 883c
00000030: 57b7 7ebc 22a5 003d ce6b 013d c21d 04bc
00000040: 5bbb 85ba d024 00bb cb87 bcbd 4e5b fd3c
00000050: cfd7 e4bc bbd3 8d3d 5ffa 28bd 3de8 dcba
00000060: ec6f ea3d 64cb 293a 69c4 a03a 2859 7dbc
00000070: 9166 163d 4c55 d5bc f134 0e3d 2f05 91bd
0.041585177 -0.0886093 0.024838122 0.052776463 -0.04289746 -0.013171883 -0.04170835 -0.10711571
0.00410575 0.08788098 -0.049230423 0.016656846 -0.015546641 0.031407483 0.03159695 -0.008063735
-0.0010202931 -0.0019553192 -0.09205588 0.030927327 -0.027934937 0.0692515 -0.041254397 -0.001685388
0.11447129 0.0006477146 0.0012265566 -0.015463151 0.03671891 -0.02604165 0.034718458 -0.07081067

combined.1.running_mean f4 [32]
00000000: 7dfe 7c3d 0aac 41be de95 cd3e 3823 f8be
00000010: 79ff 8bbe 980b 9ebe 53ce 00bf b134 7c3e
00000020: 2e37 a6be a8ab d83e bed3 3bbe a20b a63d
00000030: f857 83be 1f81 5a3e 98ac f73d 77af 023e
00000040: c920 f0be c2f3 2fbf 7ff7 54be c1a5 1ebf
00000050: 0978 b7bc dfe1 2f3f baab 30ba 8ce7 ad3e
00000060: e896 e43e 0438 0fbf 986e 873e 498f 66be
00000070: 3209 583c 25e9 573c a40e db3e 48c4 c53e
0.061766136 -0.18913284 0.40153402 -0.4846437 -0.27343348 -0.3086822 -0.50314826 0.24629475
-0.32463974 0.42318463 -0.18342492 0.081076875 -0.25653052 0.21338318 0.120934665 0.12762247
-0.46900013 -0.6873132 -0.20797537 -0.6197167 -0.022396104 0.68704027 -0.00067394564 0.3396572
0.44646382 -0.5594485 0.26451564 -0.22515596 0.013185786 0.013178145 0.42784607 0.38626313

combined.1.running_var f4 [32]
00000000: 8e56 4c40 8bb5 4e3f e08f 823f d639 233f
00000010: 1502 833f f132 9d3f 15ff d63e 37cb 823f
00000020: 3e33 4f3f 4c62 363f de87 833f bb7f 4c3f
00000030: d289 a53f 85a4 c33e 35cf 2440 272d 833f
00000040: 7416 d73f 1066 7b3f 8d2c 3e3e 70dd f53e
00000050: 1199 253f bec8 3540 16af 4f3f 5f89 d93e
00000060: 7b1f 323f 01a7 423f e30e af3e e7c5 f73e
00000070: d4ff 2a3f bc68 963e 684b 6d3f 0c6c b83f
3.1927829 0.8074576 1.0200157 0.63760126 1.023501 1.2281171 0.41991487 1.0218266
0.80937564 0.7124374 1.0275838 0.798824 1.2932684 0.38211456 2.575147 1.0248154
1.6803727 0.9820261 0.18571682 0.48020506 0.64686686 2.8403773 0.81126535 0.42487618
0.69579285 0.7603608 0.34191045 0.48393175 0.6679661 0.2937678 0.92693186 1.4407973

combined.4.weight f4 [16, 32]
00000000: c02d 03be 0e1c 213d 7f3c b7bd 0c9f 5b3d
00000010: 612a 473d b2bf 993e bd8e 793e 595a a7be
00000020: be0e 9fbe e6b5 67bd b0db 203d e273 cc3d
00000030: bd20 b93e 44c9 123d 0106 98be 64e9 d1bc
00000040: 9d0a 893e 06db 8b3e 5c65 68be 1dd6 3b3d
00000050: b4e5 aebe 87ec 45be 8f3f 0c3e 44f4 68be
00000060: 94dd 383e 1da3 6dbe a32e 3b3e 7dd2 483e
00000070: c7ea 7a3e 08d1 a13d 55d4 b9bc c26a fabd
00000080: c7f5 efbd 9454 85be c359 813e 5f06 61be
00000090: 5e4d 753d bd09 a6be 836a 173e 4c9c 35be
000000a0: 9f35 b3be 5a3c 263b 932c acbe 9388 bb3d
000000b0: 808a 9ebe 9714 553e 7af7 1bbe 5dcd 5f3d
000000c0: a7d7 90bc 97bc d1be 0a44 603e c0c7 853e
000000d0: 2ba6 2fbe 7ce3 be3d 96c9 3a3d ff9e 3d3e
000000e0: 51b6 9e3e a198 bbbe 54bd 33be 6fbf d4be
000000f0: 561e 91be 9f9d 4bbe fc73 b8bd 7905 fe3d
00000100: 4890 a5be 70fb 59be 802d b2be c9e7 98be
00000110: fd7a 533e bf5c 50bd 29f2 853d 055c edbc
00000120: 2d4b 88be 3de0 8fbd 2317 633d 0528 353e
00000130: af6e 7b3e 90e2 043e f823 70be ed7c 67be
00000140: 9fd0 703e 751b bbbe c5b7 4f3e 19d8 a83d
00000150: de93 a13e 86bf 8d3e 3e9d f5bd ebf3 62be
00000160: 5f8c 293d 2ed6 25be aeae 9abd b463 253e
00000170: dc47 243e 26ca 02be 1dd7 95be 2ac2 adbe
00000180: dee9 bcbe 6941 053d 931d 9abe 0894 debd
00000190: 9c47 56be ef2f 68be fcb7 b13e 736b 353e
000001a0: f725 7b3e 6cc5 943e db45 6fbe 5d45 50be
000001b0: 0670 8fbe 631c 803e ed09 413e 01ab 2f3e
000001c0: 8c9c 43be 7dda 36be d829 d23e 8bb5 51be
000001d0: 7a71 71be fdc7 2f3e dc58 9ebe cfa8 8dbc
000001e0: 24dc 8b3d 0d10 a33e 8677 bdbd 7309 62be
000001f0: 2c2b 4d3e 5a7b af3e 7289 8dbe cdfe ccbd
00000200: ac6d aabe da50 46be aec1 b53c 2297 f43c
00000210: e776 8cbc 4469 b5be 0741 663b 437d 453e
00000220: 4840 dfbc 07d5 c1bd 268d 84be 292e 683e
00000230: ec12 b3be d83b 7ebe 99d3 723e cb3e 88be
00000240: 67a2 313e 4ea0 3abe fb27 253c e65c ecbd
00000250: db7f 8a3e 4b6e 693e 5c2b acbc 6449 223e
00000260: d015 39be 9f38 debd 39bb 14be 42d7 4a3e
00000270: 3aed 17bc 83e1 903e f538 5ebd b4b5 2abd
00000280: ba62 61be 27a6 083e be11 a3be 4fa4 1c3e
00000290: b8de 8e3d f1c5 5b3c 1845 403e 53b1 c53d
000002a0: eb26 0fbe d979 99be 5c23 bcbe 5700 573e
000002b0: 314e 5f3e 2cdd abbe 15c5 063e 00d1 b4bd
000002c0: 702c a13e ca01 debd f797 7b3e 3e3d 443e
000002d0: f6b2 7e3e 021a 713e 480a 173d a199 883d
000002e0: f986 c8be 2b2c e2bd 8229 0cbe bc34 d53d
000002f0: a3c5 ebbd 9af2 023e d290 2e3e 1408 753d
00000300: 9a6d d23d c060 033c 40e0 6a3e 37d3 92bc
00000310: 4576 483e 809c 1b3d ff4c d1bd e041 98be
00000320: 3bfc 9f3e dde3 23bd 0e48 bd3e 585e aabe
00000330: 9c49 77be 28d9 e1bd 9e58 c1be 0952 243e
00000340: e2d1 923d fe3e 0a3d c09d 553e d8cf 523e
00000350: 7ad7 a4be 9dab afbe 52ee c93d 6556 8abe
00000360: 793d 133d fa44 6c3b 9e6c 62bd b29a e5bd
00000370: fdf9 f03c 8e3b acbd 0741 3fbe 2d21 b9bd
00000380: 2e1f c73d b634 793e 67a3 ba3d 78ad b5bc
00000390: e256 b03e b3b6 933e 303b 2fbe 2146 98be
000003a0: 4091 d03c 017e cf3d 0e53 5bbe 4d96 a5be
000003b0: 50ae 053d bb87 633e 9a6f bbbe 8177 c6bd
000003c0: d72e 16be 6a37 adbe 707a 8bbe 7ba1 5e3e
000003d0: f2d8 403e 2a07 aebe 039d cebd 6881 9ebe
000003e0: 03d8 813e e521 84be 0546 3e3d 6a47 29be
000003f0: e7df 813c 467c 3d3e 2065 a6bb 3f63 163e
-0.12810421 0.039333396 -0.089470856 0.053618476 0.0486244 0.30029064 0.24370857 -0.32686117
-0.31065935 -0.056569956 0.03927201 0.099830404 0.3615779 0.035836473 -0.2969208 -0.025623985
0.2676591 0.2731554 -0.22694916 0.04585849 -0.34159625 -0.1932851 0.1369612 -0.2274943
0.18053275 -0.23206754 0.18279509 0.19611545 0.24503623 0.07901198 -0.022684256 -0.12227394
-0.117168 -0.2604109 0.25263795 -0.21975087 0.059888236 -0.32429305 0.14786725 -0.17735404
-0.35001847 0.0025365562 -0.33627757 0.09156909 -0.30965042 0.20808636 -0.15231124 0.05463921
-0.017680956 -0.40964195 0.21900955 0.2612896 -0.17153232 0.09320733 0.045602404 0.18517683
0.3099847 -0.36639884 -0.17552692 -0.41552302 -0.28343457 -0.19884346 -0.09006497 0.124033876
-0.3233664 -0.21287322 -0.3480034 -0.29864338 0.20652385 -0.0508697 0.06540329 -0.028974542
-0.26619855 -0.07025192 0.055441987 0.17691047 0.24553941 0.12977052 -0.23451221 -0.22606249
0.23517083 -0.36544386 0.20284946 0.08244342 0.31558126 0.27685183 -0.11992882 -0.2216336
0.041393634 -0.16194984 -0.07552849 0.16151315 0.16043037 -0.12772426 -0.2926568 -0.33937198
-0.36897177 0.032533083 -0.30100688 -0.108680785 -0.20925754 -0.22674535 0.3471068 0.1771677
0.24526201 0.2905687 -0.23366491 -0.2033896 -0.28015155 0.25021657 0.18851443 0.17155077
-0.19102687 -0.17856784 0.4104755 -0.2047941 -0.23578444 0.17166133 -0.3092717 -0.017292408
0.06829098 0.31848183 -0.09251313 -0.22073917 0.20036 0.34273797 -0.27643925 -0.10009537
-0.33286798 -0.1936678 0.02218708 0.029857222 -0.01714654 -0.35431874 0.0035133974 0.19286065
-0.027252331 -0.0946446 -0.25888938 0.22673859 -0.34975374 -0.24827516 0.2371353 -0.26610407
0.17347108 -0.18225214 0.010080333 -0.115411565 0.2705067 0.2279598 -0.02101677 0.15848309
-0.18074727 -0.10850643 -0.14524545 0.19808677 -0.009272868 0.28297052 -0.054253537 -0.04167719
-0.22010317 0.13344632 -0.31849474 0.15297054 0.06976074 0.013413892 0.18776357 0.096529625
-0.1397969 -0.29975775 -0.36745727 0.20996223 0.21807171 -0.33567178 0.13161118 -0.08828926
0.31479216 -0.10840185 0.24569689 0.19163987 0.24872956 0.23545077 0.03687504 0.066699274
-0.39165476 -0.110435806 -0.13687709 0.10410449 -0.115123056 0.12787858 0.17047432 0.059822157
0.10274811 0.0080186725 0.22937107 -0.01792298 0.19576366 0.037991047 -0.10219764 -0.2973776
0.31247124 -0.04001223 0.36969036 -0.33275104 -0.24149173 -0.110277474 -0.37762922 0.16046919
0.07168938 0.03375148 0.20860958 0.20587099 -0.32195646 -0.34310618 0.09859909 -0.2701904
0.035947297 0.0036051855 -0.055279367 -0.112111464 0.029416079 -0.08409797 -0.1867715 -0.09039531
0.09722744 0.24336514 0.09113198 -0.022177443 0.34441286 0.28850326 -0.17112422 -0.29741004
0.025459886 0.10131455 -0.21418402 -0.32341233 0.03263694 0.22219746 -0.36608583 -0.09690762
-0.14666305 -0.3383134 -0.2724185 0.21741287 0.18832758 -0.3398984 -0.10088541 -0.30958104
0.25360116 -0.2580711 0.046453495 -0.16531149 0.015853835 0.18504438 -0.005077973 0.14686297

combined.4.bias f4 [16]
00000000: 4c82 b1ba b1f3 4fb9 a106 ceba 7382 a8ba
00000010: b650 e3b9 23eb 473b e24f 4d39 728f 233b
00000020: f320 a53a 88ad 6fba 8299 6e3a c135 5bba
00000030: dc22 1d3b 2f42 853b 9a89 aaba 80b5 b639
-0.001354286 -0.0001983184 -0.0015718528 -0.001285626 -0.00043356948 0.0030505143 0.00019580082 0.0024957326
0.0012598321 -0.00091429846 0.0009101854 -0.0008362197 0.0023977077 0.0040667276 -0.0013010979 0.00034848973

combined.5.weight f4 [16]
00000000: dcdb 6b3f ff4a 6d3f 3825 843f 7b70 893f
00000010: c012 823f 6b2e 5e3f 8ecc 6d3f 4697 633f
00000020: 38f1 5d3f 5604 5f3f 2e2f 693f 7f73 603f
00000030: 9b1c 813f 2278 833f a8e8 873f e11b 813f
0.92132354 0.9269256 1.0323858 1.0737451 1.0161972 0.8678958 0.9289025 0.889027
0.86696196 0.8711599 0.91087615 0.87676233 1.0086855 1.0271037 1.0617876 1.0086633

combined.5.bias f4 [16]
00000000: 648b ed3b 1526 3e3d d3c6 c53d de00 ca3d
00000010: 90e6 2a3e 7673 6bbd aa7c 2b3d cbe1 e0bd
00000020: 3838 41bd 043f 11bd 48a7 4bbc 4a18 85bd
00000030: e042 9d3c 320f 423c e991 703e 988c b43d
0.0072492827 0.046423037 0.09657063 0.09863447 0.16689515 -0.05748316 0.041866936 -0.109805666
-0.047172755 -0.035460487 -0.01243002 -0.064987734 0.019196928 0.011844443 0.2349316 0.08815879

combined.5.running_mean f4 [16]
00000000: 629c dd3d cbab 85bf 3b68 23bf 78b0 73be
00000010: 49ba d4be 3a3a c93d 4cc9 efbe a60e e6be
00000020: f2df ab3e 6960 2b3d a986 1fbf 1dc5 bc3e
00000030: b09c 68be 4912 11bf b79b 54be e582 d23d
0.10820843 -1.0443052 -0.6383092 -0.23797786 -0.41548374 0.09825559 -0.46833265 -0.4493305
0.33569294 0.04183999 -0.6231485 0.36869135 -0.22716022 -0.56668526 -0.20762525 0.102788724

combined.5.running_var f4 [16]
00000000: f3aa b43f 5c68 7240 3854 0940 6384 2840
00000010: 0015 2e40 156e 9b3f 04cd 0e40 2004 0540
00000020: 17a3 da3f fb15 c93f 3e20 3340 f7df 353f
00000030: 6ef2 cd3f 20e9 0740 28d0 6240 27d4 be3f
1.411467 3.7876196 2.1457653 2.6330802 2.7200317 1.2142969 2.2312632 2.0783768
1.7081021 1.5709833 2.798843 0.7104487 1.6089609 2.1236038 3.5439548 1.4908494

combined.7.weight f4 [2, 16]
00000000: 98c2 9c3d 1875 513e 11a9 45be 4606 86be
00000010: 2d9c 08bf db0f 313e 0376 a03e 3b53 253e
00000020: 27ad 023e 4a4d 653e a52b ef3e 2b55 183d
00000030: e405 1f3e 0536 f73d 38f8 c0be ec1b e73c
00000040: e4a5 053e 4ac8 e3be 50fc 56be 7f0a b0be
00000050: af84 a6be 4e68 ba3e 7e3c d83e ca34 94bd
00000060: 5022 0f3e ea1b 1ebd 6a2f a33b 603b 92bd
00000070: 6895 b5be 5019 afbe d33b 2c3f 9c1b 5b3e
0.07654303 0.20454824 -0.19302775 -0.2617666 -0.53363305 0.17291205 0.31340036 0.16145031
0.12761365 0.22392765 0.46712986 0.037190598 0.15529591 0.1207085 -0.37689376 0.028211556
0.13051564 -0.44488746 -0.20994687 -0.34383008 -0.32523105 0.36407703 0.42233652 -0.07236631
0.13977933 -0.03860084 0.0049800174 -0.07140231 -0.3546555 -0.34199 0.67278785 0.21397251

combined.7.bias f4 [2]
00000000: 67e5 b2bd 28e0 9b3d
-0.08735161 0.07611114
